…
The one in Exercise 1 has 9,494,561 total trainable parameters while the one in class only has 93,222 trainable
parameters.

The model summary for Exercise 1 shows a input_layer whereas the model summary for the one in class does not.

The specific numerical differences in terms of nodes, dimensions, etc., can be seen below from the copy/pasted
model summary of the one from Exercise 1 and the one from class.

Convolutional Neural Network for Exercise 1 of ML Practicum:

_________________________________________________________________
Layer (type)                 Output Shape              Param #
=================================================================
input_1 (InputLayer)         (None, 150, 150, 3)       0
_________________________________________________________________
conv2d (Conv2D)              (None, 148, 148, 16)      448
_________________________________________________________________
max_pooling2d (MaxPooling2D) (None, 74, 74, 16)        0
_________________________________________________________________
conv2d_1 (Conv2D)            (None, 72, 72, 32)        4640
_________________________________________________________________
max_pooling2d_1 (MaxPooling2 (None, 36, 36, 32)        0
_________________________________________________________________
conv2d_2 (Conv2D)            (None, 34, 34, 64)        18496
_________________________________________________________________
max_pooling2d_2 (MaxPooling2 (None, 17, 17, 64)        0
_________________________________________________________________
flatten (Flatten)            (None, 18496)             0
_________________________________________________________________
dense (Dense)                (None, 512)               9470464
_________________________________________________________________
dense_1 (Dense)              (None, 1)                 513
=================================================================
Total params: 9,494,561
Trainable params: 9,494,561
Non-trainable params: 0
_________________________________________________________________

Process finished with exit code 0

##############################

Convolutional Neural Network for In-Class Lecture:

_________________________________________________________________
Layer (type)                 Output Shape              Param #
=================================================================
conv2d_4 (Conv2D)            (None, 26, 26, 32)        320
_________________________________________________________________
max_pooling2d_3 (MaxPooling2 (None, 13, 13, 32)        0
_________________________________________________________________
conv2d_5 (Conv2D)            (None, 11, 11, 64)        18496
_________________________________________________________________
max_pooling2d_4 (MaxPooling2 (None, 5, 5, 64)          0
_________________________________________________________________
conv2d_6 (Conv2D)            (None, 3, 3, 64)          36928
_________________________________________________________________
flatten_2 (Flatten)          (None, 576)               0
_________________________________________________________________
dense_3 (Dense)              (None, 64)                36928
_________________________________________________________________
dense_4 (Dense)              (None, 10)                650
=================================================================
Total params: 93,322
Trainable params: 93,322
Non-trainable params: 0
_________________________________________________________________

########################################################

Can you see any interesting patterns in the intermediate representations?

As you go deeper, the layers displays smaller representations.
Some of the representations displayed seems like what you would see after applying a Adobe Photoshop filters.
…
